solo/evaluate/evaluator-151_946.pth (torch, 3552 bytes, 3 tensors)

linear_relu_stack.0.weight f4 [25, 11]
0	0x3ff80872	1.9377577
1	0x3f92c24c	1.1465545
2	0x3fc4404a	1.533212
3	0xc094c050	-4.6484756
4	0x3f2ee824	0.6832297
5	0xc0cb8616	-6.360118
6	0xbf8a593a	-1.080848
7	0xbf9595b8	-1.1686316
8	0x3fbc939d	1.4732548
9	0xc04baeb5	-3.1825383
10	0xbfafa812	-1.3723166
11	0xbe924a4a	-0.28572303
12	0xbf95b149	-1.1694728
13	0xbfa65be8	-1.2996798
14	0xbf558faf	-0.8342237
15	0xbf1508b2	-0.58216393
16	0xc0d8c98c	-6.774603
17	0x407d923a	3.96205
18	0xc04324b4	-3.0491152
19	0x401368fc	2.3032827
20	0xbf985c95	-1.1903254
21	0x3fc64e74	1.5492692
22	0xbf371ee2	-0.715315
23	0xc009f86e	-2.155788
24	0x3ee10c6b	0.43954787
25	0x3facc379	1.3497154
26	0xc083dd48	-4.120762
27	0xbf960634	-1.1720643
28	0x3ff10a9a	1.883136
29	0x402a84b6	2.66435
30	0xbfc0bf76	-1.5058429
31	0xc004c546	-2.0745406
32	0xbf556803	-0.83361834
33	0x40940ddf	4.6266932
34	0xbfafb09a	-1.372577
35	0xbffd6c31	-1.9798642
36	0x3e9442aa	0.2895711
37	0xbfec8856	-1.8479106
38	0x3f4767de	0.77892864
39	0xbf8dcf6e	-1.1078928
40	0xc05225b8	-3.2835522
41	0x401927b8	2.3930492
42	0xbf80bac8	-1.0057001
43	0xc05bf9ca	-3.437121
44	0xc01185bf	-2.2737882
45	0xc012bf56	-2.2929282
46	0xc09cf106	-4.904422
47	0x4041bea0	3.0272598
48	0x400a41fd	2.1602776
49	0xbfe90146	-1.8203514
50	0x40ea78e2	7.327256
51	0x408c603e	4.3867483
52	0x3f61b7f6	0.8817133
53	0xbf43abd1	-0.76434046
54	0x402be8b4	2.686078
55	0xbf4cc618	-0.7998977
56	0xc08abe21	-4.335709
57	0x3dc61bb8	0.09673256
58	0x413af2d6	11.684286
59	0xc007ac2a	-2.119883
60	0xbf3ccb22	-0.73747456
61	0xc038fbfd	-2.8903801
62	0xc0ae8f0d	-5.4549623
63	0xc0262031	-2.5957148
64	0x40439ed6	3.0565696
65	0xbf55c6fa	-0.8350674
66	0x3eb3b8e0	0.35101986
67	0xc0526d52	-3.2879224
68	0x3e37bab8	0.17942321
69	0xbf410c64	-0.7540953
70	0xbf55a769	-0.8345857
71	0xc0485052	-3.1299024
72	0xc08cb822	-4.397477
73	0xbe713258	-0.23554361
74	0x3eba06b7	0.36333248
75	0x3f651c94	0.8949673
76	0xbe352460	-0.17689657
77	0xbfd7a914	-1.6848474
78	0x3fb883e4	1.441525
79	0x3fc32795	1.5246454
80	0x40c0d1d9	6.025616
81	0x3f554d7a	0.83321345
82	0x405be1b7	3.4356515
83	0x400296ee	2.040462
84	0xc0f9c109	-7.804814
85	0x3ff0e7b4	1.882071
86	0x3e5d2fb8	0.21600235
87	0xbfb4a8bc	-1.4113994
88	0xbfdd0eda	-1.7270157
89	0xbf832ba6	-1.0247695
90	0xc08fe4ec	-4.4966946
91	0xc06b5f22	-3.6776814
92	0x3fe8e62b	1.8195242
93	0xbe3bbecc	-0.18334502
94	0xc07cef5b	-3.952109
95	0xc03fab17	-2.9948175
96	0xbe8dc1ee	-0.2768702
97	0x4053f770	3.3119774
98	0xbfacbe42	-1.3495562
99	0x40354234	2.8321657
100	0xc01db518	-2.464178
101	0x3f71e488	0.94489336
102	0x40354ef6	2.8329444
103	0x3f84ed09	1.0384837
104	0x3d0d7820	0.03453839
105	0xc08fa449	-4.4888043
106	0xbf86c212	-1.0527976
107	0x3f93d2c4	1.1548696
108	0x3fd3e5fe	1.6554563
109	0xbfc97d47	-1.5741357
110	0xc099b1b8	-4.802944
111	0x41231e38	10.194878
112	0xc09075af	-4.5143657
113	0x409e0962	4.9386454
114	0xbf9c7f1b	-1.222629
115	0x404084d7	3.008108
116	0xbf9f2fc9	-1.2436458
117	0xbf3bbaf9	-0.7333217
118	0xbffc67ee	-1.9719217
119	0x3f147156	0.57985437
120	0x40c50247	6.156528
121	0xbeee0bc2	-0.46493345
122	0xbff21cf2	-1.8915083
123	0xc0f11300	-7.5335693
124	0xbdf415d2	-0.119182244
125	0xbed8d148	-0.4234717
126	0x3fd94142	1.697304
127	0x3ee40222	0.44532877
128	0xbf38835a	-0.72075427
129	0x3e1136b8	0.1418103
130	0x40153bbf	2.3317716
131	0xc0467d00	-3.1013794
132	0x402a5bc2	2.6618505
133	0x4027ac08	2.619875
134	0xbf114710	-0.5674906
135	0xc0d82166	-6.754077
136	0x3fc16dec	1.511167
137	0xbfa7d2e6	-1.3111236
138	0x3f060c6d	0.5236271
139	0x3f86601e	1.0498083
140	0xc05b845a	-3.429953
141	0x3f27dda4	0.6557257
142	0xc05b371e	-3.425239
143	0xbfb66c8c	-1.4251876
144	0xc012fdfa	-2.2967515
145	0xbff0d480	-1.881485
146	0xbda22cbe	-0.0791869
147	0x3fcef2d6	1.6167858
148	0xbef2b3ac	-0.47402704
149	0xc01e7d82	-2.4764104
150	0x3f7f7f9c	0.9980409
151	0xbff3a9a0	-1.903614
152	0xbf382889	-0.7193685
153	0x4032f339	2.7960951
154	0xbf661246	-0.89871633
155	0x3e53b350	0.20673871
156	0xbfe66523	-1.7999614
157	0x3e146ecc	0.1449539
158	0x3ff1c8f2	1.8889449
159	0x403d5072	2.958035
160	0xbd5d2798	-0.053992838
161	0xbd4d2b70	-0.050090253
162	0x3f7ba0ac	0.9829204
163	0x40354172	2.8321195
164	0x3f80527d	1.0025173
165	0xbf8157cc	-1.0104918
166	0x3d12e7b0	0.035865486
167	0xbf42e587	-0.7613148
168	0x3f15df04	0.5854342
169	0xbef08339	-0.46975115
170	0xbfc8d366	-1.5689514
171	0xbfb8b5ce	-1.4430482
172	0x3d040ac8	0.032236844
173	0x403a1ebe	2.9081264
174	0x3f396fc7	0.72436184
175	0x4027d0f3	2.6221282
176	0x40760369	3.8439581
177	0x3fea4c4c	1.8304534
178	0x410303ac	8.188396
179	0x40872070	4.2227097
180	0x3f30f3a6	0.6912178
181	0xbfbd8c30	-1.4808407
182	0x4089472a	4.289937
183	0x3fd0eed5	1.6322886
184	0x3fe74892	1.8069022
185	0xbf001fbc	-0.5004842
186	0xbea17b2f	-0.31539294
187	0xbf5d1a0a	-0.8636786
188	0x4084aa44	4.1457844
189	0xbf38fcaf	-0.72260565
190	0x3f6e8bec	0.93182254
191	0xbf298dc6	-0.66231954
192	0xbec346f0	-0.3814006
193	0xbf9befae	-1.218252
194	0x3fd6c413	1.6778587
195	0xc0935499	-4.604077
196	0xbeeb5b69	-0.45968178
197	0xc073cc60	-3.809349
198	0xbf03bb60	-0.51457787
199	0x3f392f15	0.72337466
200	0x4053ba18	3.3082333
201	0xbfa79af9	-1.3094169
202	0x4021daa4	2.5289698
203	0x408dc7dd	4.4306474
204	0x3eb80809	0.3594363
205	0x401de380	2.4670105
206	0x3e9307e0	0.28716946
207	0x3fc55d70	1.541914
208	0x3fe6ba60	1.8025627
209	0x3fb9f4b2	1.45278
210	0x3f2f82d8	0.68559027
211	0xbff657be	-1.9245527
212	0xbf8f92c4	-1.1216664
213	0xbe4795b8	-0.19490707
214	0x401204ee	2.281551
215	0x3fe56d6e	1.792402
216	0x40930d6f	4.59539
217	0x3fc47500	1.5348206
218	0xc0020fc1	-2.0322115
219	0x3ed2465c	0.41069305
220	0x3f8d6845	1.1047446
221	0x403304b0	2.797161
222	0xc0521a19	-3.2828429
223	0x4103b05c	8.2305565
224	0xbed92cae	-0.424169
225	0xc08491e8	-4.142811
226	0xc0627f2b	-3.5390117
227	0xbf0182fc	-0.5059049
228	0x40e32110	7.097786
229	0xc08650c9	-4.1973615
230	0xc117d44a	-9.489328
231	0xbeb0ceab	-0.34532675
232	0xbfad2fd7	-1.3530225
233	0x402e80ac	2.7266035
234	0xc02ea9f8	-2.729124
235	0xbf803b96	-1.0018184
236	0x3f6af0f1	0.917739
237	0x3fecb3a9	1.8492328
238	0xbf5e7012	-0.86889756
239	0xbe817498	-0.25284266
240	0xbeec1778	-0.46111655
241	0x4018ebce	2.3893924
242	0xbf0b9128	-0.54518366
243	0xc0b53623	-5.6628585
244	0x3fe3d376	1.7798908
245	0x4046c150	3.1055489
246	0x403275d7	2.7884424
247	0x40767cb8	3.8513622
248	0x3f2dd0ae	0.67896545
249	0x3fd4b6fc	1.6618342
250	0xc012965b	-2.290427
251	0xc0bbdcde	-5.8707113
252	0xbf9f8434	-1.246222
253	0x4066294e	3.596271
254	0x3f3e72cc	0.74393916
255	0x4010de2a	2.2635598

linear_relu_stack.0.bias f4 [25]
0	0xc0f65588	-7.697941
1	0xbfacfba2	-1.3514292
2	0xbebcfdb4	-0.3691231
3	0xc096d8dd	-4.7139726
4	0xc0f409a2	-7.626176
5	0x405187d4	3.2739153
6	0xbf9c3ddd	-1.2206379
7	0x3fd41980	1.6570282
8	0x40338d2c	2.8054914
9	0xbdcc6d80	-0.09981823
10	0x3ec9a8f4	0.39386714
11	0xc091bec4	-4.554537
12	0x40271090	2.610386
13	0x40ae4f02	5.4471445
14	0xc09923dc	-4.7856274
15	0x3f47c073	0.7802803
16	0xc03288f2	-2.7896085
17	0x4092407f	4.570373
18	0x408ce6de	4.403182
19	0xc0265988	-2.5992146
20	0xbf59a3bc	-0.85015464
21	0x3db0d250	0.08633864
22	0xc01e6565	-2.4749386
23	0xc0192948	-2.3931446
24	0x4089c30e	4.3050604

linear_relu_stack.2.weight f4 [1, 25]
0	0xc0f37909	-7.608525
1	0x3f442f17	0.76634353
2	0x3f820655	1.0158182
3	0x3f7ad4c0	0.9798088
4	0xbf64be52	-0.89352906
5	0xc0632fc9	-3.5497916
6	0x3fda74be	1.7066877
7	0x4082a5e0	4.0827484
8	0xbe06c530	-0.13161159
9	0xbe8737f0	-0.26409864
10	0xbf9dea7f	-1.2337188
11	0xbe15ff81	-0.14648248
12	0xbf72d601	-0.94857794
13	0x3fdbb394	1.7164178
14	0x3fafd264	1.3736081
15	0x3fb824e8	1.4386263
16	0xc0df29d0	-6.973854
17	0xc018cf00	-2.3876343
18	0xc09bb630	-4.8659897
19	0x3fc65236	1.5493839
20	0x4049c3c1	3.1525729
21	0x3f6698b2	0.90076745
22	0x3e66136e	0.2246835
23	0xc094bd31	-4.6480947
24	0xbf61c662	-0.88193333
