solo/evaluate/evaluator-820_4253.pth (torch, 3560 bytes, 3 tensors)

linear_relu_stack.0.weight f4 [25, 11]
000000 ed c6 97 be a8 ca 23 be 99 79 37 be 00 f7 92 3b
       -0.29643956 -0.15995276 -0.1791748 0.004485011
000010 8e af 88 3e 10 b6 69 be 80 4d 8a 3e 00 83 aa bc
       0.26696438 -0.22823358 0.27012253 -0.020814419
000020 10 28 02 3d 50 a5 b0 3d 8a f3 70 be 53 55 b2 3e
       0.031776488 0.08625281 -0.23530403 0.34830722
000030 11 60 05 be 28 66 42 3e 9a 3b bc bd c0 a6 66 be
       -0.13024928 0.18984282 -0.091910556 -0.22524548
000040 42 dd c1 bd cf f8 20 be c8 57 5c 3e 61 97 ee bf
       -0.0946603 -0.15719913 0.21517861 -1.8639947
000050 f0 f9 4b 3e 04 32 15 be 64 86 83 be ec 48 8a be
       0.19919562 -0.1456986 -0.2568847 -0.2700876
000060 64 42 6a be 46 db 38 3e 00 a3 78 3f d0 0e 61 bf
       -0.22876889 0.18052396 0.9712372 -0.8791323
000070 d6 7c fd bd c6 7c 07 3e be c7 65 bf c5 15 92 3f
       -0.12377326 0.13231191 -0.8975791 1.1412894
000080 60 36 5a bc 0a bb 68 be 88 1c 69 3d 11 a4 8b be
       -0.013318628 -0.227276 0.056911975 -0.2727361
000090 97 b9 85 be 12 d6 42 3e 84 9a b1 bd 9c 3e 6f 3e
       -0.26118156 0.19026974 -0.0867205 0.23363727
0000a0 37 94 0c be 7f 86 12 3f e1 dc 20 bf b8 a5 48 3e
       -0.13728414 0.57236475 -0.62837034 0.19594467
0000b0 2a 48 e7 bd 04 09 f0 3d 50 26 07 3f f8 e4 82 bd
       -0.11293061 0.117204696 0.52792835 -0.063913286
0000c0 c4 e5 05 bf f6 76 76 be 00 ef 8c bc 5e a3 20 be
       -0.5230372 -0.24068817 -0.017203808 -0.1568732
0000d0 db 69 46 be f1 93 3e bf e4 d5 80 3e 9c 67 a2 3f
       -0.19376318 -0.7444449 0.25163186 1.2687869
0000e0 a0 b4 6d 3e 35 fe 8e be 27 43 22 be 72 70 8e 3e
       0.23213434 -0.2792832 -0.15845929 0.27820164
0000f0 5c cb f3 3d 77 80 f4 bf 00 81 68 3b b4 58 57 3e
       0.11904022 -1.9101704 0.003547728 0.21029931
000100 c8 74 5e 3e 98 ab 4c 3e 20 8d a7 3c cc 6e cf 3d
       0.21724236 0.19987333 0.020453036 0.10128555
000110 c9 af 33 be 3f 52 2f be 9c 1e 51 3e 5c 1f 87 3e
       -0.17547525 -0.17121218 0.20421833 0.26391113
000120 ce 0c b8 be aa 61 fd bd a8 e4 76 be a6 55 95 3e
       -0.3594727 -0.123721436 -0.24110663 0.29166907
000130 e6 9c 3d 3e 1a 59 98 be 76 42 b3 bd 40 90 f2 3d
       0.18516883 -0.2975548 -0.08752911 0.1184392
000140 d8 e8 95 be 88 31 20 3d 0d 1b 85 be 70 df 58 3e
       -0.29279208 0.039109737 -0.259972 0.21178985
000150 d4 18 8b be 88 32 51 be 30 18 99 3c 50 09 24 3e
       -0.2716738 -0.20429432 0.018688291 0.16019177
000160 00 bd 8d bf b0 94 29 3e 2e 9c 81 3e de bd 55 be
       -1.1073303 0.16560626 0.25314468 -0.2087321
000170 c4 6f 60 be 8b e4 34 be a8 db fc 3d aa 66 8d bf
       -0.21917635 -0.17665307 0.123465836 -1.1046956
000180 a6 bf ba bd cd 8b aa be f2 56 bd bd 98 df 45 3d
       -0.09118585 -0.33309785 -0.09245099 0.04830894
000190 4a f6 b8 3e 4e f7 1b 3e 46 0c ed 3e 00 94 dc 3b
       0.36125404 0.15231058 0.46298426 0.00673151
0001a0 2d 94 1e be da 22 2f be ce 2f 20 3e 29 16 8c be
       -0.15486212 -0.17103139 0.15643236 -0.27360657
0001b0 1c 03 71 3e ef 38 5d 3e 13 65 96 be 00 74 ef 3a
       0.23536342 0.2160375 -0.29373989 0.0018268824
0001c0 88 f6 68 3e c8 18 8d 3f 3e 40 10 3e 19 3d 1a 40
       0.22750294 1.1023188 0.14087006 2.409979
0001d0 b0 c0 e1 bc 65 72 ef 3f 56 02 2d 3e 58 e7 ae 3e
       -0.0275577 1.8706785 0.16895422 0.34160876
0001e0 4c 60 85 bf bc e4 01 3e 64 e9 7b 3e 14 c4 4e bf
       -1.0420012 0.12684911 0.2460075 -0.8076794
0001f0 78 29 19 be 6c 2d 25 be 24 94 26 3e b0 a1 59 3d
       -0.14957225 -0.16130608 0.16267449 0.053132713
000200 8a e7 4a 3e 8f 77 56 be 04 a7 42 3f 46 d4 06 3c
       0.19814888 -0.20944045 0.76036096 0.008229321
000210 f6 9f d1 3f 24 60 21 3e 52 4b 0b 3e 10 d7 82 bd
       1.6376941 0.15759331 0.13602951 -0.06388676
000220 af b9 95 be 00 bd cf 3d 38 04 fd be 02 d2 8d 3e
       -0.29243228 0.10143471 -0.4941728 0.27699286
000230 c4 1e 0c 3e 6c ba 4b 3e 7e ea 4c be 6b 6b 88 be
       0.13683611 0.19895333 -0.20011327 -0.26644453
000240 ac e3 eb 3d 46 ce 28 3f b4 9e 60 3f 2a f4 34 3e
       0.11518034 0.6593975 0.8774216 0.17671266
000250 4c 4d 74 3e 06 f4 4b be b8 92 70 be 97 4d bc 3e
       0.23857611 -0.19917306 -0.23493469 0.36777946
000260 e3 b2 2e be e8 40 42 3d b9 eb 76 be e8 f4 83 3e
       -0.17060427 0.04742518 -0.24113359 0.25772786
000270 50 01 10 bd db 39 8e be 30 33 c5 bc 6a a7 0e 3e
       -0.0351575 -0.27778515 -0.02407226 0.13931051
000280 a0 64 56 3e 1c 91 f5 3d 78 16 f9 bd 70 67 4b 3e
       0.20936823 0.11990568 -0.12162489 0.19863677
000290 80 f8 73 be a0 a1 07 3e f0 82 ca 3c 38 70 87 3e
       -0.23825264 0.13245249 0.024720639 0.26452804
0002a0 bc 11 5b 3e 76 85 87 bd b0 55 67 3e bc c8 7c 3e
       0.21393484 -0.066172525 0.22591281 0.24685949
0002b0 c8 0a 04 3d a8 2b 35 3e c8 fd d5 3d 77 7b bb 3e
       0.032236844 0.17692435 0.104487956 0.36617634
0002c0 1e 1c 51 be 1a 53 7a be e7 bc 67 3f 36 00 56 3f
       -0.20420882 -0.24445763 0.9052262 0.8359407
0002d0 66 f2 80 be 00 31 0e 3e 76 d3 31 3e a8 1a 8c 3e
       -0.25184935 0.1388588 0.17365822 0.27364087
0002e0 dc b2 08 3e 0e a4 6f 3e d0 06 12 3e 54 d9 4a be
       0.1334948 0.23402426 0.14260411 -0.19809467
0002f0 2f 7a 2f be 1b 4a 21 be 20 a2 41 bc 20 5d fd 3c
       -0.17136453 -0.15750925 -0.011818439 0.030928195
000300 98 58 4c be ec 3f 5c 3e 80 68 8a 3d 76 8a 60 be
       -0.19955671 0.2150876 0.06758213 -0.21927819
000310 fc 81 57 3f ba a5 82 be 70 7f aa 3d 2a 2d 45 3e
       0.84182715 -0.25517064 0.08325088 0.1925551
000320 5c 63 44 3f 00 02 a3 3c 86 31 26 3e ba 21 9e bf
       0.7671411 0.019898415 0.16229829 -1.2354043
000330 3a c2 08 3e 8c fe 65 3e 1a 69 cd bd 8e d3 5f be
       0.13355342 0.22460383 -0.10029812 -0.21858045
000340 78 1c 4c bd 86 8b 3e be 3c d2 87 3e 88 76 50 3d
       -0.049831837 -0.18607911 0.26527584 0.05089429
000350 38 a1 33 bd d6 c8 cc bd 68 7e ad 3d 50 dc 54 be
       -0.043854922 -0.09999244 0.08471376 -0.20787168
000360 56 47 5c be 10 97 7e bd 7a 1e 97 3e a4 1e fa 3d
       -0.21511588 -0.062155783 0.2951544 0.122128755
000370 ea aa ba 3f c8 99 86 3e 7a e9 bb bd 4e b4 bb be
       1.4583409 0.262892 -0.091753915 -0.36661
000380 68 83 4d 3d de 93 03 be 70 1e 08 3f c8 c8 cd bd
       0.050174147 -0.12849376 0.53171444 -0.100480616
000390 c2 b0 b3 bd c7 72 12 be d0 e6 64 3d f0 b9 3c 3d
       -0.08773948 -0.14301597 0.055884182 0.04607576
0003a0 10 8c 0f be db fc b6 3e b3 d2 a8 bf b0 9f 74 3e
       -0.14018273 0.35739788 -1.31893 0.23889041
0003b0 f8 21 92 3d 7a ff ac bd 34 db df bd b6 db a2 bd
       0.07135385 -0.08447166 -0.109304816 -0.07952063
0003c0 0f fe 03 3f eb 2c 19 3f 2e e4 96 bd c2 39 80 3e
       0.5155954 0.59834164 -0.073677406 0.25044066
0003d0 a8 9e 93 3e 3e 2a 32 3e 7c f9 24 be 19 a3 20 3f
       0.28831983 0.17398927 -0.16110796 0.6274887
0003e0 9c dc b6 3f 10 f8 0a 3d e0 61 96 3c be 60 fe bd
       1.4286075 0.033927977 0.018357217 -0.12420796
0003f0 70 ba a3 3c 80 1f 6b 3c aa bc 29 be 75 a7 94 be
       0.019986361 0.014350772 -0.16575876 -0.2903401

linear_relu_stack.0.bias f4 [25]
000000 7a 4e cd bd bc ce 28 3e 94 da 0a be f5 bd 54 be
       -0.10024734 0.16485113 -0.13559943 -0.20775588
000010 48 e9 4a 3e 28 56 71 3e be f0 4f be 14 5e 8c be
       0.19815552 0.23568022 -0.2030668 -0.27415526
000020 e8 13 d5 bd 6b 40 26 be 90 9c e7 3d 00 9b 32 bb
       -0.104041874 -0.16235511 0.11309159 -0.0027253032
000030 00 77 2f 3c ef d4 d2 3f cb e9 cd be bc 6a b9 bd
       0.010709524 1.6471232 -0.40217432 -0.09053561
000040 25 38 94 be d9 c3 68 be 76 b4 ec 3e 00 24 f3 3c
       -0.28949085 -0.2273096 0.4623143 0.029680252
000050 ea 7d 19 3e c6 07 8c 3e ca d9 36 be 22 d1 4a be
       0.14989439 0.2734968 -0.17856517 -0.1980634
000060 46 cb 5e be
       -0.2175723

linear_relu_stack.2.weight f4 [1, 25]
000000 8c 5d 03 be 6c 05 13 3d 76 5b ff 3d aa 26 88 bd
       -0.12828654 0.035893843 0.12468617 -0.066479996
000010 86 b4 80 bd fb 25 b1 bf ed 72 0b 3e 7f 0e 0a 3e
       -0.06284432 -1.3839716 0.1361806 0.13482092
000020 61 e8 40 3e ed fd 19 be da 9b 21 be 56 7a 19 be
       0.18838646 -0.15038271 -0.15782109 -0.14988074
000030 32 38 47 be a0 be 55 bd f4 81 54 bd 88 ba 57 bd
       -0.1945503 -0.052183747 -0.051881745 -0.052668124
000040 6c 28 8e bd b1 38 03 3e 33 5c b1 bd bd 40 42 be
       -0.069413036 0.12814595 -0.08660164 -0.18970008
000050 8d de b9 bd a2 a4 47 be 76 bd 13 be 0c ce 85 bd
       -0.09075651 -0.19496396 -0.14427742 -0.06533441
000060 39 a3 48 3e
       0.19593515
